data.pth (torch, 45911 bytes, 6 tensors)

l1.weight f4 [8, 604]
00000000: a846 033f 2fe5 d93e 3a0d b43e 067d 983f
00000010: 6711 283f db63 d43f c575 b1be 4cae 1040
00000020: 79b2 0840 e287 dbbf 8888 853f 793c 46bf
00000030: 2ebf 0d3f 35d7 133f a9ad 7dbf f846 1740
00000040: 3c5a 243e 5d74 80bf 16dc 2ebf eecc 39bf
00000050: b5eb 513f 620d 90bf d9f6 3d40 3cd9 debe
00000060: d490 45bf 7fa4 c83f ed9e 0e40 7075 5fbf
00000070: 0c58 5940 c8ab e23e b22c 0d3f 4795 a33f
00000080: a8a3 df3e 85eb 05bf 5c08 8f3f c9d7 ef3e
00000090: 64ea 59bf 7569 d43f 3c09 07bf 148e cabf
000000a0: b471 5f3f fef6 513f d497 ce3f 3a4f 0740
000000b0: 2a5c 873f a1ea e9be 8f30 e93e 313b 3440
000000c0: f640 e43a beb4 37bf 8390 1e3f 0e28 f43f
000000d0: 528a b83f 3c2e a53f 01de a73f afa7 0b40
000000e0: 3cd2 293f 300c fd3e 1f66 9f3e a035 033f
000000f0: c61b 963f fae0 89bf 3e39 133f d916 3f3f
00000100: 7460 fb3f 9dd0 5140 0bb7 2140 93dc 103f
00000110: 50ff 1440 07c3 6a3f 92ab 113e 9c69 26bc
00000120: dd8f 1d3f 46c5 383f f403 dd3f f462 d0bd
00000130: 18df 3bbe 1138 093f cc76 d73f 0405 743f
00000140: 58c9 4140 cfbd d63f 7905 cc3e 41f8 353f
00000150: efc8 523f 6417 5c3e b1d1 38bf cd21 b93f
00000160: b61b 923f f65c 2ebe 4d70 3ebf 7de4 353f
00000170: 730c d23f 9fff d6bf 962c 0c3d f8de 39bf
00000180: df4f 1940 d57a 1740 6453 6c3f 93db 5d40
00000190: b8dd f1bf c7dc 213f 5eb6 ae3f 2814 ba3f
000001a0: 78f3 0ebd af60 2b3f 4fa3 ad3f 0e07 60bf
000001b0: 17cf 0640 4522 f13f 59ed 323f b79e 23be
000001c0: 1346 d53f 3261 a93f 06a5 4640 761a 11bf
000001d0: ee49 843f 8711 073f 137a 66be fe44 8c3f
000001e0: a600 563f b111 6dbd 3b64 f83f d885 dd3f
000001f0: d7e5 1fbe 0426 c93e 3ba9 0640 9e81 cdbf
00000200: cb2a 0d40 6b7e 2040 64c3 be3f c670 3bbf
00000210: bd0c 1c40 0d2c 0340 dc90 ee3f 9516 9b3f
00000220: 85b7 423f 4900 4f40 cbdb f6bf 3811 f23f
00000230: 9491 b2be 54fb 4b40 6456 9340 5c5e cc3f
00000240: 34a9 b93f 0950 1040 d6ef 283f a0e6 ed3e
00000250: e7ec f83f 7d58 ef3f 15bb 4abf f5cd 8c3f
00000260: 956b 0940 dcfd e8be bf8f e43e a1fb 83bf
00000270: 6a6a 7940 804b 3bbf c20d 75be c22b cb3f
00000280: ab7e 923f 72f3 5e3f d4ac 76be 99c1 363f
00000290: a61e 3a40 aba1 16bf a078 773e 5cdd 4040
000002a0: 98d0 7f40 c890 2a40 2c21 37bf 8e8a ba3f
000002b0: 0650 843f 1e13 c03f 870d 45bd 882d 72be
000002c0: 2d39 b63d d4f0 c53f 11de 0940 20e1 e83f
000002d0: 80a9 6c3f 0289 893f 6f93 943f 5828 3c3f
000002e0: 6275 f33f ddbc 9240 a253 96bf a955 f93e
000002f0: e565 51bf 4ca9 b240 52eb 85bd 4834 f73f
00000300: 877c be3f 0325 64be cdd9 7a40 f9dc 6d40
00000310: 5777 d53f ea8b 97bf e5dc e33f c29f 5640
00000320: 88ce a3bf 913c 343f 93f0 ac3f dbc5 b03f
00000330: f843 6fbf 90fd b03f e7c2 983b 3cdb 443f
00000340: 8770 c13f 3396 223f cf44 ef3f c220 843e
00000350: 153c 393f bce7 12bf 5450 2140 6c98 6240
00000360: 5cbd 813f 8f16 eabe 1a6e a2be 907e b43f
00000370: 20ba 113f 8bb4 5440 2226 fe3f 5f20 1d40
00000380: e603 803f 8702 2440 1769 a93e 3369 39bf
00000390: 2a7c 14bf 872e b13f 184d 39bf 7cf0 fd3f
000003a0: 6038 39bf b7d6 943f cd1b e93f 110c 3bbf
000003b0: b8cc 39bf 1cda 2040 0e31 3bbf 4ef9 39bf
000003c0: 55ca 4e3f d922 85bf 60a7 3bbf 2ead c73e
000003d0: 5705 05bf 72a5 b83f ac72 623f ffe2 8d3f
000003e0: 8ce2 393f 6a01 90bf 0631 2c40 8e18 4540
000003f0: b943 013e 9dbc 1f40 7945 4cbd 1dde 80be
0.5127969 0.42557666 0.3516634 1.1913154 0.65651554 1.6592973 -0.34660164 2.2606382
2.135893 -1.7150843 1.0432291 -0.77436024 0.5536984 0.57750255 -0.9909311 2.3637066
0.16050047 -1.0035511 -0.68304574 -0.7257832 0.82000285 -1.1254084 2.9681914 -0.43525112
-0.77174115 1.56752 2.22845 -0.8728857 3.395999 0.44271684 0.55146325 1.2779931
0.43679547 -0.523125 1.1174426 0.46844319 -0.85123277 1.6594683 -0.52748466 -1.5824609
0.8728287 0.82017505 1.6140084 2.1142106 1.0575001 -0.4568682 0.4554486 2.8161128
0.0017414379 -0.71760166 0.6193926 1.9074724 1.4417212 1.2904735 1.3114625 2.1821096
0.6633642 0.4942336 0.311326 0.512537 1.1727226 -1.0771782 0.5750922 0.7464424
1.963881 3.2783577 2.526797 0.5658657 2.328083 0.9170384 0.14225605 -0.010157015
0.6154764 0.72176015 1.7266831 -0.10175124 -0.18346822 0.53601176 1.6833129 0.95320153
3.027914 1.6776675 0.39847925 0.7108193 0.8233785 0.21493298 -0.72194964 1.446344
1.1414707 -0.1702765 -0.7439011 0.7105177 1.6410049 -1.6796759 0.034222208 -0.7260585
2.3955 2.366872 0.92314744 3.4665267 -1.8895788 0.63227504 1.3649404 1.4537401
-0.03490016 0.669444 1.3565463 -0.87510765 2.1063898 1.8838583 0.69893414 -0.15978514
1.666201 1.3232787 3.1038222 -0.56681 1.0335062 0.5276112 -0.22507505 1.0958555
0.8359474 -0.0578782 1.9405588 1.7306471 -0.1561502 0.39286816 2.104079 -1.6055181
2.2057369 2.507716 1.4903378 -0.73218954 2.4382775 2.0495636 1.8637958 1.2116266
0.7606128 3.2343924 -1.9285825 1.8911505 -0.34876692 3.1872149 4.6042957 1.5966296
1.4504762 2.254885 0.6599096 0.46465015 1.9447297 1.869888 -0.79191715 1.1000353
2.1471913 -0.4550618 0.4464092 -1.0311166 3.89712 -0.7316208 -0.2393103 1.5872729
1.1444906 0.8709022 -0.24089366 0.71389157 2.9081206 -0.58840436 0.24167109 3.0135107
3.9971066 2.6650867 -0.7153499 1.4573534 1.0336921 1.5005834 -0.048108604 -0.23650181
0.08897624 1.546412 2.1541789 1.8193703 0.92446136 1.0744936 1.1607493 0.7349906
1.9020197 4.5855546 -1.1744273 0.48698166 -0.81796104 5.583166 -0.065390244 1.931283
1.4881753 -0.22279744 3.9195435 3.716612 1.6677045 -1.1839573 1.7801787 3.3535008
-1.2797403 0.70404917 1.3510917 1.3810381 -0.9346309 1.3827381 0.004661906 0.76897025
1.5112466 0.63510436 1.8692874 0.25806242 0.723573 -0.5738485 2.5205278 3.540553
1.0135913 -0.45720336 -0.31724626 1.4101124 0.5692463 3.3235195 1.9855387 2.4551008
1.000119 2.5626543 0.3308799 -0.72426146 -0.5800196 1.3842324 -0.7238326 1.9839015
-0.72351646 1.1628026 1.8211609 -0.73065287 -0.72578 2.5133123 -0.73121727 -0.72646034
0.80777484 -1.040126 -0.7330227 0.38999313 -0.5196127 1.442549 0.88456225 1.1084899
0.7261131 -1.1250432 2.6904922 3.0796237 0.1262349 2.495887 -0.04987094 -0.2516946

l1.bias f4 [8]
00000000: 928f d73e 8616 cf3f ef26 bb3e 0599 293f
00000010: 2c97 203f 9b2e 813f fae0 183f eb37 a33f
0.42101723 1.6178749 0.3655314 0.66249114 0.6273067 1.0092348 0.59718287 1.275144

l2.weight f4 [8, 8]
00000000: cd8b debf 5923 eabe 6994 65bf e158 8f40
00000010: 0ad4 77bf f187 82bf d04f 6640 032e 2dbf
00000020: 60db 5e40 ec54 e7bf b8b9 3840 8827 82bd
00000030: a98b 5ac0 3278 ecbe 7d4d 4540 9377 0e40
00000040: e163 80bf c52d 393f e98d ed3f 7120 3740
00000050: d451 73c0 c788 d93e ca7b e73f 6269 aebf
00000060: 65f5 2cc0 d4f4 5ebf 24e3 0040 12ea afbf
00000070: d757 2cbe cc19 9840 8948 1fbf 6ee6 5b40
00000080: 87aa 813c 4b08 3cbe a80b 903d a8f2 223d
00000090: 0132 52be 2dcc 033e 952c b2be 704c 04be
000000a0: 4ae5 4b40 236b 0d3f ffd1 55c0 29d7 46c0
000000b0: f9ba 8b3f 3bc7 e83f 1d7b 2140 53e9 acbf
000000c0: 2d47 0d40 6a97 8640 5f78 97bf 82a6 dfbf
000000d0: 657a d1bf 08f6 17c0 4c26 33bd 04d4 1140
000000e0: 2288 3840 3d41 05c0 1fa6 9d3f d17b 0540
000000f0: dd43 7140 168a a9bf 6caf 54bf b29e de3e
-1.7386414 -0.45730093 -0.8967958 4.4795995 -0.9680792 -1.0197736 3.5986214 -0.67648333
3.4821396 -1.8072791 2.8863354 -0.06355196 -3.4147742 -0.46185452 3.0828545 2.2260482
-1.0030481 0.72335464 1.8558933 2.861355 -3.8018694 0.42487165 1.8084652 -1.362591
-2.7024777 -0.8709233 2.0138636 -1.3743308 -0.16830383 4.753149 -0.62220055 3.4359393
0.015828384 -0.18362539 0.07033473 0.039782196 -0.20526887 0.12870856 -0.34799638 -0.12919784
3.1858697 0.552416 -3.3409421 -3.1068823 1.0916435 1.81858 2.5231392 -1.3508705
2.2074692 4.205983 -1.1833609 -1.7472689 -1.6365477 -2.3743916 -0.043737695 2.2785654
2.883309 -2.0821068 1.2316321 2.0856822 3.769767 -1.3245265 -0.8308017 0.4348045

l2.bias f4 [8]
00000000: 558d 74bf 9666 83be ac55 433f 5c49 833f
00000010: 79c5 51be 8f2d 59bf 32db 953f aa83 15bf
-0.95528156 -0.25664204 0.763026 1.0256763 -0.20485486 -0.8483514 1.1707518 -0.5840403

l3.weight f4 [296, 8]
00000000: d412 df3d 34d6 95c0 0e3a 07bf dc59 7bbf
00000010: 61ef ee3d b912 bdbf bf50 12c0 8a00 a9bf
00000020: 4c03 24bf ebf3 fabe d436 e3bf ef24 29c0
00000030: c627 f3bd 0899 a6c0 e76d 88bf 62ad ebbf
00000040: 6a67 0bbf 96e4 09c0 75fb 553f 4f35 5ec0
00000050: d2aa eebc bab0 32c0 6df0 13c0 7af5 a8be
00000060: b59c 1abf dc07 13c0 0b99 ed3f f6bd 34c0
00000070: 7999 06be 5f5d d3c0 ff57 25c0 b348 dabf
00000080: d6ce 81bf c983 35bd c70d 18bf 5815 f6bf
00000090: 61b9 49bd 7ff0 a1c0 4021 35c0 3b52 ccbf
000000a0: 8062 97c0 c41e d03f bf4c a2c0 2a3e 3ec0
000000b0: a2b4 a13e 4f49 c2c0 f158 0ec0 c98d e3be
000000c0: daed 1bc0 0c59 a1bf 4da9 6bbf 2cc3 9fbf
000000d0: e6cd b9bd 4c79 c63e 8a0e 2ec0 3960 89bf
000000e0: bc6f d0bf f482 9d3f c6f4 81c0 8f3b afbf
000000f0: 8704 e93d ba89 fcc0 25d6 45c0 1ae7 cbbf
00000100: c645 b9c0 5e1a b3c0 8b86 f3bd 0448 b5be
00000110: e1d0 b13d 5637 c23f 745e d4c0 1c02 cfbf
00000120: 184b 983e 18e5 c5c0 4631 b33f 5551 89c0
00000130: 20b0 1b3e 713a 173f 2c88 5ac0 b8ce be3d
00000140: dfdf 0cc0 cf2f 99be 45b9 cdbe a600 a5be
00000150: dbf8 733e e384 2abf e73e 91c0 dd36 15c0
00000160: de1a a0bf 12b4 9abe 97b1 84c0 0536 aabf
00000170: ea7a b6be 16ca 5abf 1d9d 21c0 57d9 4cbf
00000180: c5a2 9dc0 1498 103e 5088 fcbf 5837 5bbf
00000190: 9c33 b4bd d096 12be c031 afc0 01cf dbbf
000001a0: d79a 883f 8798 52c0 7770 0b3e 3a52 bbbf
000001b0: 8ccb 96be fa4a ebc0 41a6 06c0 1f66 69c0
000001c0: 95a0 8abf 20b1 abbf 37c0 92c0 47cc 7ec0
000001d0: e6d9 53be 3330 dc3e 8040 a0c0 f9df e63e
000001e0: fbbb 723f a780 a4c0 0c76 8c3f 2980 d9bf
000001f0: 567f 0fbe ecfe 2fbf cc34 54c0 b6f9 33c0
00000200: 9927 1a3f 40cf 25c1 51ed 0140 0989 24c0
00000210: ee0c b2bd 388f a4c0 a6d0 02c0 58e8 a1bf
00000220: 1137 65bf 6b40 9fbf 413c 64bf 8041 c43d
00000230: a1bc 0b3d 585a 46c0 ed7f 2cc0 eabe b3c0
00000240: 24fe 0f3e 6063 1ac0 7b70 cebf 36c7 19c0
00000250: 216e 0ebe cf16 f5bf b7e8 dfbf 4040 d3be
00000260: 9f50 3cc1 a874 67bf 12b4 36bf af74 af3e
00000270: e991 673e 2d9d cdc0 db0c 2dbf 0ac5 14bf
00000280: 2a24 febd 85de 18c0 7d6c 51bf b9a0 7fbf
00000290: eb63 3f3e 9168 23bd 098d 2cc0 bfec dcc0
000002a0: b377 c5bd ef8c 7ebf d35b c6c0 5987 bfbe
000002b0: 9cd0 10bc ddbd fabe 98e5 70c0 05b9 39c0
000002c0: 91f3 3ebf 38f1 1b3e f5a4 6cc0 fe16 7dbf
000002d0: fe94 a23e af20 65c0 7cf1 29c0 ecd3 abbf
000002e0: a87a b7c0 5aeb 28c0 8eb7 3840 a970 49c0
000002f0: 181b 553d 152b a4c0 ce29 f1bf f079 65bf
00000300: 8d47 07bf bc32 89c0 9d18 a53e 1526 f2bf
00000310: be43 803e 045f 1dc1 6632 0ebf 00b6 82c0
00000320: 7cdb 103f 730d ddbe befd b0c0 47f7 14c0
00000330: 7466 77be 1f63 02c1 6836 afbf 2147 a5bf
00000340: 8d15 4ebf 87af 3cbf 6ebb cbbe a6cc 99bf
00000350: e571 9b3e 6e71 e8bf 808d 1ac0 69fe c0c0
00000360: 5484 603d 0cc1 97bf 26e8 8bc0 e164 35c0
00000370: 0c0d 873e 1791 10c0 6294 1ac0 c96f e1ba
00000380: 2229 a8bf 7e4f 36bf 06eb 7ec0 5ea7 e0be
00000390: 2b3e c3bd 3fed 8fbf b97f e8bf 6935 a5c0
000003a0: 44b6 efc0 3fa0 e03e c5e0 e7c0 a9c2 19c0
000003b0: 69b0 863e c013 43c0 1109 99bf 67a6 cebe
000003c0: 6e1b c8c0 3c8a 8bbf f99f f6c0 9b10 a6bf
000003d0: ef4f 893e f4ae 6a3d f15d 20c0 dc8f c7be
000003e0: 99f4 04c0 a328 43bf d773 a2c0 c4c4 4fc0
000003f0: 86db 833e c966 8f3e 7230 3ec0 5908 0cbe
0.10892263 -4.682398 -0.5282296 -0.9818399 0.11666752 -1.4771339 -2.2861784 -1.320329
-0.6406753 -0.4901422 -1.7751107 -2.6428792 -0.118728206 -5.2061806 -1.065854 -1.8412287
-0.5445467 -2.1545768 0.8358682 -3.4720037 -0.029134188 -2.7920365 -2.3115494 -0.32999784
-0.60395366 -2.2973547 1.856233 -2.8240943 -0.13144483 -6.605148 -2.5834959 -1.7053436
-1.0141246 -0.044315133 -0.5939602 -1.9225264 -0.049249057 -5.0606074 -2.8301544 -1.5962595
-4.730774 1.6259389 -5.0718684 -2.9725442 0.31583124 -6.071449 -2.2241786 -0.4444411
-2.4363923 -1.26053 -0.9205521 -1.2481437 -0.09072475 0.38764417 -2.7196374 -1.073249
-1.6284099 1.2305589 -4.0611296 -1.3690051 0.11377817 -7.8918123 -3.0911953 -1.5929902
-5.7897673 -5.5969687 -0.118908964 -0.35406506 0.086824186 1.5173137 -6.63653 -1.6172519
0.29744792 -6.1842155 1.3999412 -4.291178 0.15203905 0.5907355 -3.4145613 0.09316772
-2.201164 -0.29919288 -0.40180412 -0.32227057 0.238254 -0.6660902 -4.5389285 -2.3314736
-1.2508199 -0.30215508 -4.1466784 -1.3297735 -0.3564065 -0.8546461 -2.5252144 -0.80019134
-4.9261193 0.14120513 -1.9729099 -0.8563132 -0.08798906 -0.14315343 -5.474823 -1.7172548
1.0672253 -3.2905595 0.1361712 -1.4634469 -0.2945217 -7.3529024 -2.1038973 -3.646858
-1.0830256 -1.3413429 -4.5859637 -3.981218 -0.2068859 0.43005523 -5.0078735 0.45092753
0.94818085 -5.1407046 1.0973525 -1.6992236 -0.14013419 -0.68748355 -3.3157225 -2.8121161
0.6021667 -10.363098 2.0301096 -2.570864 -0.086938724 -5.1424828 -2.043985 -1.2649031
-0.8953715 -1.2441534 -0.8915444 0.09582806 0.034115437 -3.0992641 -2.695308 -5.617055
0.1406179 -2.4123154 -1.6128076 -2.4027839 -0.13909198 -1.9147586 -1.7492894 -0.41259956
-11.769683 -0.9041238 -0.71368515 0.3426871 0.22614254 -6.4254365 -0.6759774 -0.5811316
-0.124092415 -2.3885815 -0.81806165 -0.9985462 0.1869046 -0.039894644 -2.696108 -6.9038997
-0.096419714 -0.994338 -6.198709 -0.3740795 -0.008838799 -0.4897298 -3.7640133 -2.9019177
-0.745904 0.15228736 -3.6975682 -0.9886321 0.31754297 -3.5801198 -2.655364 -1.3424048
-5.7337227 -2.6393647 2.8862033 -3.1475012 0.05202779 -5.130259 -1.8840883 -0.89639187
-0.5284355 -4.287443 0.3224534 -1.8917872 0.25051683 -9.835697 -0.5554565 -4.084717
0.56584907 -0.43174323 -5.5309744 -2.3275926 -0.24160177 -8.1491995 -1.3688478 -1.2912332
-0.80501634 -0.73705333 -0.39791435 -1.2015579 0.30360332 -1.8159616 -2.4148865 -6.031056
0.054813698 -1.1855788 -4.3720884 -2.8342822 0.2637714 -2.2588556 -2.4153066 -0.0017199452
-1.3137553 -0.71215045 -3.9830947 -0.4387769 -0.09533342 -1.1244277 -1.8163978 -5.16277
-7.490999 0.43872258 -7.2461877 -2.402506 0.26306465 -3.0480804 -1.1955892 -0.4036133
-6.2533484 -1.0901561 -7.707028 -1.2973818 0.26818797 0.057295755 -2.5057337 -0.38976943
-2.077429 -0.7623388 -5.0766406 -3.2463846 0.2575342 0.28008106 -2.9717069 -0.1367506

l3.bias f4 [296]
00000000: ccf4 aec0 5f41 55c0 0236 07c0 5e5d 96be
00000010: 90e0 02c0 d9cc efbf 4795 1fc0 7c17 41c0
00000020: 69e6 52c0 0999 cf3d 4637 84bf 48cc 8bc0
00000030: 86d5 cabf 26e0 2fc0 c66e e4bf 25e3 b9be
00000040: 902e 17c0 9865 25c0 609b 88c0 d475 d83e
00000050: a15a d3bf 7314 12c0 e113 8bc0 0644 18c0
00000060: 18f5 93c0 fd67 84c0 6892 e8bf f5b8 80c0
00000070: 5f9d 92c0 49be cec0 d795 87c0 58a1 bbbf
00000080: 749c 95bf 786f 7bc0 b708 08c0 1adb 0ac0
00000090: c5a7 88bf 0881 e5bf 7117 2ec0 34fe 5fc0
000000a0: 429f c5bf 5cf6 a7bf 69a8 29c0 9920 51c0
000000b0: dcb5 75c0 ec7f 32bf c6bc a53e 2483 d1bf
000000c0: 615e 8dbf a1c5 26c0 7fa0 4ec0 7e93 92c0
000000d0: fc89 74bf 7962 39bf 291d 76c0 5755 35c0
000000e0: 303e 6ac0 8adf f8bf 642c 05c0 01cd 48c0
000000f0: ddb9 80c0 44d1 81bf 2ec5 87c0 8bf6 7b3e
00000100: ba48 e5bf b252 ddbf 043b 53c0 a63f 0a3e
00000110: 6987 80c0 272c debf cbe7 66c0 c727 f0bf
00000120: 0967 89bf fddb 89bf 5a6b 4dc0 9fee 44c0
00000130: 7102 8cbf 2e72 88bf 22ee fabf 274e 8f3c
00000140: 8062 20bf 9129 5fbf b058 bc3e a619 26bf
00000150: bf33 8b3e 085f 39c0 a5d6 79c0 aeb7 acc0
00000160: e3c2 60c0 5667 f3bd 9acd 1dbf 7b11 05bf
00000170: dcca 8cbf 3b27 7ebf 183e df3c f9b1 fb3d
00000180: 51e7 0cc0 eaf7 78bf df7d 5dc0 6919 a6bf
00000190: 3227 95c0 8ab1 083f 7cc2 36c0 e16d 82bf
000001a0: fcc9 dfbf 4f7f 4abf e292 a4c0 66a8 28c0
000001b0: 1342 d93e fa75 82c0 6954 f5be e5fd 94c0
000001c0: 5875 37bf cbb9 91bf 7311 d5bf 4cbf a2c0
000001d0: fdda 97c0 2e93 3cc0 f572 55c0 8ba5 83c0
000001e0: 2065 38c0 df53 a1c0 3663 3bc0 a678 bcc0
000001f0: e4b5 52c0 e335 7ec0 0ec3 37c0 9da6 acc0
00000200: 8287 a3c0 de98 92c0 2bf3 7ec0 0d0d d7bf
00000210: 66d7 78c0 3dab e83e 3141 abbf 0a66 dfbf
00000220: 45df fcbf 276c 08c0 2773 acbe 1035 11c0
00000230: ccb9 d4bf 2227 68c0 7cc2 71c0 bd89 dbc0
00000240: db94 9cc0 bf01 9dbf 052a 6fc0 0e8c 27c0
00000250: 4ba5 8fc0 d6b3 ddc0 11a2 d1c0 58d0 01c1
00000260: 6073 95c0 f054 51c0 8ad0 6dbe 9ab7 b8bf
00000270: f86a c2bf 901d 2abf 1ea8 e1be 3dee 19bf
00000280: c762 9ec0 977a bfc0 1c99 a23d d911 19c0
00000290: e004 d8bf b0ae 9fbf cd45 c9be 3cbc f7bf
000002a0: ddfd 36c0 7daa 65c0 4779 1fbe 5a90 f2bf
000002b0: f5b7 84c0 de4a 89c0 aa93 65be aaea 17bf
000002c0: 51d5 88c0 49d3 8bbf de00 2cc0 69ac cebf
000002d0: 70e3 11c0 fe3f 85c0 68f7 b8c0 8890 84bf
000002e0: 2c07 26bf 92f9 a6bf 2624 e5be c8b8 15bf
000002f0: ce48 93c0 5ee4 8cc0 a3b2 b4bf 99c0 33c0
00000300: e364 abc0 a3c6 8bc0 8505 c4c0 a434 23bf
00000310: 1864 80be 8526 61bf c6fc 1bc0 d9e7 d6bf
00000320: b1fd 6ac0 0fc1 e3bf 8e61 88bf 8201 99bf
00000330: ac6a f1bf a1fa d9bf 549d 73c0 40bf 58c0
00000340: 98d5 adbf d256 44c0 0807 63bf 693e dbbf
00000350: 41ec 64c0 ba6b 2ec0 16e2 92c0 c681 54c0
00000360: 1771 aec0 2d8d 82c0 a966 8ac0 1eb7 4dc0
00000370: 7733 82bf a70c f6bf 39d2 27c0 598f 5ebf
00000380: b068 69c0 fb49 54c0 e46b 75c0 1c92 80c0
00000390: d239 a9c0 cd36 9fc0 6867 a9be 78ea 0bc0
000003a0: 7b8d c5c0 3f35 90c0 64fa 96c0 2fd8 1bc0
000003b0: 82bf 15c0 5b80 19c0 292f 3dc0 aafd 42c0
000003c0: c1d6 91c0 903d 7ac0 aa48 afc0 9683 d8c0
000003d0: 6c89 82c0 c7cd 9abe 178d f4bf 0b72 a2c0
000003e0: 9f20 88bf b4db 60c0 85e1 d2c0 d325 7ec0
000003f0: d82f 2bc0 6209 89bf 4c1a 7bbe 12af c4bf
-5.4673824 -3.332115 -2.1126714 -0.2936811 -2.0449562 -1.873439 -2.4934862 -3.0170584
-3.2953131 0.10136611 -1.0329368 -4.3686867 -1.5846412 -2.748056 -1.7846305 -0.3630611
-2.362217 -2.5843258 -4.2689667 0.42277396 -1.6512033 -2.2824981 -4.3461766 -2.3791518
-4.6236687 -4.137694 -1.816968 -4.022578 -4.5817103 -6.460728 -4.237041 -1.4658613
-1.1688371 -3.9286785 -2.125532 -2.169623 -1.0676199 -1.7930002 -2.7201807 -3.4998903
-1.5439227 -1.3122058 -2.650904 -3.2676146 -3.8392248 -0.69726443 0.32370585 -1.6368146
-1.1044427 -2.6058123 -3.228546 -4.5805044 -0.9552305 -0.7241588 -3.8455298 -2.8333337
-3.6600456 -1.9443219 -2.0808344 -3.1375124 -4.0226884 -1.0141988 -4.24282 0.24605767
-1.7912819 -1.7290862 -3.300477 0.13500842 -4.0165296 -1.7357224 -3.6078975 -1.8762139
-1.0734569 -1.077026 -3.2096772 -3.0770643 -1.0938245 -1.0659845 -1.9603922 0.01749332
-0.626503 -0.871728 0.36786413 -0.64882886 0.27187917 -2.8964252 -3.9037259 -5.397422
-3.511895 -0.11884944 -0.6164185 -0.519798 -1.0999408 -0.9927861 0.027251288 0.12289805
-2.2016184 -0.97253287 -3.4608076 -1.2976505 -4.6610346 0.53395903 -2.8556204 -1.0189782
-1.7483516 -0.7910051 -5.14293 -2.6352782 0.42433223 -4.0769014 -0.47915962 -4.655993
-0.7166343 -1.1384825 -1.664595 -5.0858517 -4.745482 -2.9464831 -3.3351414 -4.113958
-2.8811722 -5.041488 -2.9279304 -5.8897276 -3.2923517 -3.972039 -2.8712802 -5.3953385
-5.1102915 -4.5811605 -3.9835918 -1.6800858 -3.8881469 0.45443144 -1.337927 -1.7453015
-1.9755636 -2.131601 -0.33681604 -2.2688637 -1.6619201 -3.6273885 -3.7774954 -6.8605638
-4.893171 -1.2266158 -3.7369397 -2.6179233 -4.4889274 -6.9282026 -6.5510335 -8.113365
-4.670334 -3.2708092 -0.23224083 -1.4431031 -1.5188894 -0.6645136 -0.44073576 -0.6012915
-4.949558 -5.9837146 0.079393595 -2.3917143 -1.6876488 -1.2475185 -0.39311066 -1.935432
-2.8592446 -3.5885308 -0.15573607 -1.8950303 -4.1474557 -4.290389 -0.2241961 -0.59342444
-4.2760396 -1.0923854 -2.687553 -1.6146365 -2.2795067 -4.1640615 -5.780201 -1.0356607
-0.64854693 -1.3044913 -0.44754142 -0.5848508 -4.6026373 -4.402877 -1.4117016 -2.8086302
-5.3560653 -4.3679976 -6.125674 -0.637522 -0.25076365 -0.879494 -2.437303 -1.6789504
-3.671734 -1.7793292 -1.0654771 -1.1953585 -1.8860679 -1.7029611 -3.8064775 -3.386673
-1.3580809 -3.067799 -0.88682604 -1.7128421 -3.5769198 -2.725325 -4.5900984 -3.3204207
-5.451305 -4.0797334 -4.3250318 -3.2143016 -1.0171956 -1.9222611 -2.622206 -0.8693748
-3.6470146 -3.3170154 -3.8347101 -4.0178356 -5.288308 -4.9754395 -0.33086705 -2.1861858
-6.1735206 -4.5065 -4.7180653 -2.4350698 -2.3398137 -2.3984592 -2.9560034 -3.0467324
-4.557465 -3.9100075 -5.47762 -6.7660627 -4.079275 -0.3023512 -1.9105557 -5.0764213
-1.0634955 -3.5134096 -6.5900292 -3.9710586 -2.6747952 -1.0705988 -0.2452175 -1.5365927
